app/src/main/assets/model.tflite (tflite, 4632 bytes, 3 tensors)

sequential_4/dense_8/BiasAdd/ReadVariableOp f4 [32]
00000000: 0000 0000 06c3 36bf 8473 2f3f 3c62 3b3f
00000010: c83c bcbe 206d 313f 2e80 33bf 0000 0000
00000020: 7d32 45bf 0000 0000 0000 0000 62a5 3c3f
00000030: a34d 13bc 9036 3cbe 3b11 3a3f 0000 0000
00000040: a2e1 4abf 02f0 46bf 4c9d 67bf d2ee 363f
00000050: 8b33 48bf 7a58 4d3f b234 d2bc 0000 0000
00000060: 0000 0000 603f 943e 54bb 353f a32f d2bc
00000070: cec2 333f 277e 1b3f 0000 0000 3cbb 41bd
0.0 -0.7139133 0.6853564 0.7319677 -0.36765122 0.69307137 -0.7011746 0.0
-0.77030164 0.0 0.0 0.73689854 -0.008990678 -0.18380189 0.7268254 0.0
-0.7925054 -0.7770997 -0.9047439 0.7145816 -0.7820365 0.8021313 -0.025659893 0.0
0.0 0.289546 0.70988965 -0.02565748 0.70219123 0.6073937 0.0 -0.0472977

sequential_4/dense_8/MatMul f4 [32, 21]
00000000: c469 033e 6fed 3ebe 3e22 8fbe 33ad 9abe
00000010: eb5d a43e 50da 89bc 6f9b a63e 0a7a 573e
00000020: eeb1 9fbe fa24 223e 54d4 94be c832 8fbe
00000030: 0983 aabe 4ca6 953d 8069 c2bc 9074 c1bc
00000040: 58cb 29bd 4c6b b73d 00ab 133e 7fd5 9bbe
00000050: c00e e5bb 39cc 4f3e 8ccd 5c3d 9ba8 173e
00000060: c0b2 d53d 4ba6 d33a 5b71 14bd 462a a5be
00000070: 08b1 2dbe da1b 93be c295 9b3d 6336 133d
00000080: bf4e 483e 7d49 903e b884 193e cc65 0ebd
00000090: e6ea 89be 23fa bb3e 9ae5 e53d a13f 723d
000000a0: 42f9 febc 1d73 febd dc8b fdbe 4f4a 6bbe
000000b0: 4248 9bbd 47e4 f8bd a265 493d 00e1 66be
000000c0: ce07 c6be 05b1 c13e 7753 cd3e 92bb e93e
000000d0: ee54 fa3e d17f d43e 33c3 b4bc 36f6 11be
000000e0: 9b1b 053e 1c70 c23c 5851 b8bd 456b 01bf
000000f0: e976 633e a3ae 9f3e ff65 3ebe 5633 c0be
00000100: 98a6 9dbe 8b58 a7be bed0 2b3e a111 543e
00000110: c383 6fbe 568c 7a3d ce69 043e 5ab4 4a3c
00000120: de8c 8abd 377d 733e c4ea 8dbe a493 cb3e
00000130: 8ee2 c9be 1ed4 0c3e 45f1 403d 63dd 9a3d
00000140: c6bb 1abe 9ed4 283d 91d3 0c3e e727 cc3d
00000150: d21e c73d 8159 cd3e cac9 6bbe 0221 85bd
00000160: 7c37 24be a2bf 6ebd d2c1 b43e 87f6 4b3d
00000170: 40f1 823d 6ffe 443e 6cbc 6a3e 762f a33e
00000180: 3156 bdbe 925a 5b3d ae89 543e e1d8 8bbe
00000190: a313 1a3d 0479 15bf dc1a 54bd 7f33 72be
000001a0: 9e93 063e 38cc 2dbf cf0b acbe 7a3a 6e3e
000001b0: 8d93 a03d 7041 0b3c 9b49 b8bd 3c44 1ebe
000001c0: a38a 2a3e dd70 b43e 67b6 04be ff25 4bbe
000001d0: dc04 0ebe 28d5 143e e746 a7be 4772 70bd
000001e0: 6667 413e 8ca4 f0be 4520 a93e b926 6cbe
000001f0: 1edc 313c 9747 4c3d 044f 593e 77a0 eb3e
00000200: b3f4 793e 18fe 573c 2518 333e 336f eebd
00000210: 0e08 b13e 64c0 afbd 2707 8bbe 94a9 c43d
00000220: 0e5e 67bc 80e1 85be bba5 11be 2447 70bd
00000230: 0074 6b3e c325 033d fe94 903c 192e 6bbe
00000240: 2c12 963e 1b2b 943d fb39 863c 5fd4 a03e
00000250: ec90 993d 2ea0 90be 7a14 34be 9517 823e
00000260: f83a 363d 0011 7abb 8cba abbe fe2a 443e
00000270: 3d01 863e 40a9 6dbe ec26 1ebe 1cba ae3d
00000280: 78c1 263d 6052 75bd 5094 75be cc6a febd
00000290: 761a 333e dae6 c7bd 406a 573d 8658 dabd
000002a0: ecda 023e c4a5 9abc 3bc2 973c 6ba7 c43d
000002b0: 0cd0 a6be 6e7d 11be 794d b73e 514a 953e
000002c0: 7435 5a3e 9a6f a1be 86e2 efbe 177f b03d
000002d0: 0aea 113d 42b5 313e 6563 d53d dc4f 883e
000002e0: 9596 84bd f9f3 48bb cd4e 913e da34 7d3e
000002f0: b5ab 183e 1082 e2bc bb7d 8cbe c6d1 7b3e
00000300: 3e2f 20be b256 5e3e da76 2b3e 44c2 a23d
00000310: 1ccf d23d c07d a63b 035a 8f3e 5f54 42be
00000320: 609f ca3c f6a1 5e3e c892 55be a851 72bd
00000330: a248 48be 9857 d23d 8781 9d3e e0c9 79bc
00000340: f9e7 90be 7d5d 57be c27d a4be a05e 423d
00000350: 98ad 1bbe 110a 95be f625 633e 92a4 4b3e
00000360: a706 823e 2be7 843e 00d9 24bd a2e2 92be
00000370: 807a 6dbc 1829 67bd ccb4 0c3e 7463 803d
00000380: dccb c93d da73 76be 30bb 33bd 5343 993e
00000390: 2e0f 24be a077 cabd 7641 743e 2b51 e9bd
000003a0: a3f6 e7be 7981 00be 543e f43d e1f0 d4bd
000003b0: b34e c03c b523 d63d 32d8 8b3d 9e10 9cbe
000003c0: cc1b b2bd edd0 8d3e 0aab 84bd b824 40be
000003d0: efd0 c03d 76ee b43e 745f 553e 1569 133e
000003e0: 374e 42bd 1826 b73d 9a6c 0abd 57ca a53d
000003f0: 5074 a13e 3cbb 5abe 3a7d 24be d3ea 9a3c
0.12833315 -0.18645261 -0.27955812 -0.30210266 0.32102904 -0.016827732 0.3254046 0.21042648
-0.31190437 0.15834418 -0.29068244 -0.2796843 -0.33303097 0.07307109 -0.023731947 -0.023615152
-0.04145369 0.08956012 0.144207 -0.30436322 -0.0069902837 0.20292749 0.053906962 0.14810412
0.104344845 0.0016147582 -0.036240917 -0.32258815 -0.16962063 -0.28732187 0.075969234 0.03594054
0.19561289 0.28181067 0.14992034 -0.03476505 -0.26937026 0.36714277 0.11225434 0.059142713
-0.031124715 -0.124243 -0.49520767 -0.22977565 -0.075821415 -0.121529154 0.04916919 -0.22546768
-0.3867783 0.37830368 0.4010274 0.45650917 0.4889292 0.41503766 -0.022065734 -0.14254078
0.12998812 0.023735099 -0.0899989 -0.50554305 0.2221333 0.31187925 -0.18593596 -0.37539166
-0.30791163 -0.3268474 0.16778848 0.2070985 -0.23390107 0.06116899 0.12930986 0.012372101
-0.067651495 0.23778234 -0.27718174 0.39761078 -0.3943066 0.13752791 0.047105093 0.075617574
-0.15110692 0.041218393 0.13752581 0.09968548 0.097226754 0.4010735 -0.23026195 -0.06500436
-0.1603679 -0.058288224 0.35304123 0.049795654 0.06393671 0.19237684 0.2292344 0.31872147
-0.3697982 0.05355317 0.20755646 -0.27313903 0.037616383 -0.5838778 -0.051783428 -0.23652457
0.13142249 -0.6788974 -0.3360276 0.23264495 0.07840643 0.008499488 -0.08998414 -0.15455717
0.16654448 0.35242358 -0.12960206 -0.19838713 -0.13869041 0.14534438 -0.32671282 -0.058702733
0.188871 -0.4700054 0.33032432 -0.23061647 0.010855703 0.04987296 0.21221548 0.46020862
0.24409752 0.013183139 0.17489679 -0.11642303 0.34576458 -0.085816175 -0.27153894 0.09602657
-0.0141215455 -0.26148605 -0.14223377 -0.058661595 0.22993469 0.032018434 0.01764917 -0.22966804
0.2931074 0.07234784 0.01638507 0.31412026 0.07498345 -0.28247207 -0.17585936 0.25408617
0.04448983 -0.0038157105 -0.3354076 0.19157025 0.2617282 -0.23209095 -0.15444535 0.08531591
0.04071185 -0.059893012 -0.23982358 -0.12422714 0.17490563 -0.09760828 0.052591562 -0.10661416
0.12778825 -0.018877871 0.018525233 0.09602245 -0.32580602 -0.14208004 0.35801294 0.2915826
0.21309453 -0.31530458 -0.4685251 0.086179905 0.035623588 0.173543 0.104193486 0.26623428
-0.06474034 -0.0030662997 0.28380433 0.24727193 0.14909251 -0.02764991 -0.27439675 0.24591741
-0.15643021 0.21712759 0.16744557 0.079472095 0.10293409 0.0050809085 0.2799836 -0.18977498
0.024734199 0.2174147 -0.20856774 -0.059159905 -0.19558957 0.102706134 0.30762884 -0.015245885
-0.2830198 -0.21031757 -0.32127196 0.047453523 -0.1520294 -0.29109243 0.2218245 0.19886997
0.253957 0.25957617 -0.04024601 -0.28688532 -0.014494538 -0.056435674 0.13740844 0.06268969
0.09853336 -0.24067631 -0.043879688 0.29934177 -0.16021416 -0.09886098 0.23853096 -0.11392435
-0.45305356 -0.1254939 0.11925951 -0.103975065 0.023475027 0.10456029 0.06828345 -0.30481428
-0.08696708 0.2769846 -0.064779356 -0.18764007 0.09414851 0.3533818 0.20837194 0.14395554
-0.047437873 0.08942813 -0.033794977 0.08095234 0.31534052 -0.21360487 -0.16063395 0.018910801

sequential_4/dense_9/MatMul f4 [1, 32]
00000000: 1072 ce3d d352 693e ff0e 0bbe 00e5 7abe
00000010: c71c 3d3e 8bf0 32be 9d05 713e f8a1 cdbd
00000020: fc81 ad3e 5858 3d3d b094 84bc 7f8b b8be
00000030: 0df8 103d 5ef5 cebb fe1a 08bf 00b7 ba3e
00000040: 5f51 063e 757a 703e c85f f93b f3ab 4cbe
00000050: df58 cf3d 7775 2dbe 573e 73be b0d7 f33d
00000060: ec21 adbe 1b82 1fbe 6f80 7fbe b6b1 b43e
00000070: 5ff1 27be f4e5 b7be f084 4bbd 8a8f 11be
0.100803494 0.22785501 -0.1357994 -0.24501419 0.18468009 -0.17474572 0.23537298 -0.10040659
0.33888233 0.04622683 -0.016184181 -0.36043927 0.03539281 -0.006315871 -0.53166187 0.36467743
0.13116978 0.23484214 0.007610295 -0.19987468 0.10124373 -0.1693934 -0.2375425 0.119063735
-0.33814943 -0.15576975 -0.24951337 0.35291833 -0.1640067 -0.35917628 -0.049687326 -0.14214912
